…
2020-08-28 02:14:05.655035: I tensorflow/core/platform/cpu_feature_guard.cc:142] Your CPU supports instructions that this TensorFlow binary was not compiled to use: AVX2 FMA
2020-08-28 02:14:05.683299: I tensorflow/compiler/xla/service/service.cc:168] XLA service 0x7f877a6b4530 executing computations on platform Host. Devices:
2020-08-28 02:14:05.683317: I tensorflow/compiler/xla/service/service.cc:175]   StreamExecutor device (0): Host, Default Version
Model: "sequential_1"
_________________________________________________________________
Layer (type)                 Output Shape              Param #   
=================================================================
conv2d_5 (Conv2D)            (None, 300, 300, 32)      896       
_________________________________________________________________
activation_7 (Activation)    (None, 300, 300, 32)      0         
_________________________________________________________________
batch_normalization_6 (Batch (None, 300, 300, 32)      128       
_________________________________________________________________
max_pooling2d_3 (MaxPooling2 (None, 100, 100, 32)      0         
_________________________________________________________________
dropout_4 (Dropout)          (None, 100, 100, 32)      0         
_________________________________________________________________
conv2d_6 (Conv2D)            (None, 100, 100, 64)      18496     
_________________________________________________________________
activation_8 (Activation)    (None, 100, 100, 64)      0         
_________________________________________________________________
batch_normalization_7 (Batch (None, 100, 100, 64)      256       
_________________________________________________________________
conv2d_7 (Conv2D)            (None, 100, 100, 64)      36928     
_________________________________________________________________
activation_9 (Activation)    (None, 100, 100, 64)      0         
_________________________________________________________________
batch_normalization_8 (Batch (None, 100, 100, 64)      256       
_________________________________________________________________
max_pooling2d_4 (MaxPooling2 (None, 50, 50, 64)        0         
_________________________________________________________________
dropout_5 (Dropout)          (None, 50, 50, 64)        0         
_________________________________________________________________
conv2d_8 (Conv2D)            (None, 50, 50, 128)       73856     
_________________________________________________________________
activation_10 (Activation)   (None, 50, 50, 128)       0         
_________________________________________________________________
batch_normalization_9 (Batch (None, 50, 50, 128)       512       
_________________________________________________________________
conv2d_9 (Conv2D)            (None, 50, 50, 128)       147584    
_________________________________________________________________
activation_11 (Activation)   (None, 50, 50, 128)       0         
_________________________________________________________________
batch_normalization_10 (Batc (None, 50, 50, 128)       512       
_________________________________________________________________
max_pooling2d_5 (MaxPooling2 (None, 25, 25, 128)       0         
_________________________________________________________________
dropout_6 (Dropout)          (None, 25, 25, 128)       0         
_________________________________________________________________
flatten_1 (Flatten)          (None, 80000)             0         
_________________________________________________________________
dense_2 (Dense)              (None, 1024)              81921024  
_________________________________________________________________
activation_12 (Activation)   (None, 1024)              0         
_________________________________________________________________
batch_normalization_11 (Batc (None, 1024)              4096      
_________________________________________________________________
dropout_7 (Dropout)          (None, 1024)              0         
_________________________________________________________________
dense_3 (Dense)              (None, 5)                 5125      
_________________________________________________________________
activation_13 (Activation)   (None, 5)                 0         
=================================================================
Total params: 82,209,669
Trainable params: 82,206,789
Non-trainable params: 2,880
_________________________________________________________________
Traceback (most recent call last):
  File "evaluate_A.py", line 56, in <module>
    evaluate_model(path1) # for evaluating model
  File "evaluate_A.py", line 51, in evaluate_model
…
2020-08-28 02:17:07.871715: I tensorflow/core/platform/cpu_feature_guard.cc:142] Your CPU supports instructions that this TensorFlow binary was not compiled to use: AVX2 FMA
2020-08-28 02:17:07.901087: I tensorflow/compiler/xla/service/service.cc:168] XLA service 0x7fda50e3b5d0 executing computations on platform Host. Devices:
2020-08-28 02:17:07.901130: I tensorflow/compiler/xla/service/service.cc:175]   StreamExecutor device (0): Host, Default Version
Model: "sequential_1"
_________________________________________________________________
Layer (type)                 Output Shape              Param #   
=================================================================
conv2d_5 (Conv2D)            (None, 300, 300, 32)      896       
_________________________________________________________________
activation_7 (Activation)    (None, 300, 300, 32)      0         
_________________________________________________________________
batch_normalization_6 (Batch (None, 300, 300, 32)      128       
_________________________________________________________________
max_pooling2d_3 (MaxPooling2 (None, 100, 100, 32)      0         
_________________________________________________________________
dropout_4 (Dropout)          (None, 100, 100, 32)      0         
_________________________________________________________________
conv2d_6 (Conv2D)            (None, 100, 100, 64)      18496     
_________________________________________________________________
activation_8 (Activation)    (None, 100, 100, 64)      0         
_________________________________________________________________
batch_normalization_7 (Batch (None, 100, 100, 64)      256       
_________________________________________________________________
conv2d_7 (Conv2D)            (None, 100, 100, 64)      36928     
_________________________________________________________________
activation_9 (Activation)    (None, 100, 100, 64)      0         
_________________________________________________________________
batch_normalization_8 (Batch (None, 100, 100, 64)      256       
_________________________________________________________________
max_pooling2d_4 (MaxPooling2 (None, 50, 50, 64)        0         
_________________________________________________________________
dropout_5 (Dropout)          (None, 50, 50, 64)        0         
_________________________________________________________________
conv2d_8 (Conv2D)            (None, 50, 50, 128)       73856     
_________________________________________________________________
activation_10 (Activation)   (None, 50, 50, 128)       0         
_________________________________________________________________
batch_normalization_9 (Batch (None, 50, 50, 128)       512       
_________________________________________________________________
conv2d_9 (Conv2D)            (None, 50, 50, 128)       147584    
_________________________________________________________________
activation_11 (Activation)   (None, 50, 50, 128)       0         
_________________________________________________________________
batch_normalization_10 (Batc (None, 50, 50, 128)       512       
_________________________________________________________________
max_pooling2d_5 (MaxPooling2 (None, 25, 25, 128)       0         
_________________________________________________________________
dropout_6 (Dropout)          (None, 25, 25, 128)       0         
_________________________________________________________________
flatten_1 (Flatten)          (None, 80000)             0         
_________________________________________________________________
dense_2 (Dense)              (None, 1024)              81921024  
_________________________________________________________________
activation_12 (Activation)   (None, 1024)              0         
_________________________________________________________________
batch_normalization_11 (Batc (None, 1024)              4096      
_________________________________________________________________
dropout_7 (Dropout)          (None, 1024)              0         
_________________________________________________________________
dense_3 (Dense)              (None, 5)                 5125      
_________________________________________________________________
activation_13 (Activation)   (None, 5)                 0         
=================================================================
Total params: 82,209,669
Trainable params: 82,206,789
Non-trainable params: 2,880
_________________________________________________________________
300/300 [==============================] - 98s 326ms/step - loss: 0.2694 - accuracy: 0.9566
==> The accuracy ofclassification_model_1.h5 is: 95.66%
==> Evaluating.......
Model: "sequential_3"
_________________________________________________________________
Layer (type)                 Output Shape              Param #   
=================================================================
conv2d_15 (Conv2D)           (None, 300, 300, 32)      896       
_________________________________________________________________
max_pooling2d_9 (MaxPooling2 (None, 150, 150, 32)      0         
_________________________________________________________________
conv2d_16 (Conv2D)           (None, 150, 150, 64)      18496     
_________________________________________________________________
max_pooling2d_10 (MaxPooling (None, 75, 75, 64)        0         
_________________________________________________________________
conv2d_17 (Conv2D)           (None, 75, 75, 128)       73856     
_________________________________________________________________
max_pooling2d_11 (MaxPooling (None, 37, 37, 128)       0         
_________________________________________________________________
flatten_3 (Flatten)          (None, 175232)            0         
_________________________________________________________________
dense_6 (Dense)              (None, 128)               22429824  
_________________________________________________________________
dense_7 (Dense)              (None, 5)                 645       
=================================================================
Total params: 22,523,717
Trainable params: 22,523,717
Non-trainable params: 0
_________________________________________________________________
300/300 [==============================] - 66s 219ms/step - loss: 0.2232 - accuracy: 1.0000
==> The accuracy ofclassification_model_2.h5 is: 100.00%
==> Evaluating.......
Model: "sequential_5"
_________________________________________________________________
Layer (type)                 Output Shape              Param #   
=================================================================
conv2d_21 (Conv2D)           (None, 298, 298, 32)      896       
_________________________________________________________________
max_pooling2d_15 (MaxPooling (None, 149, 149, 32)      0         
_________________________________________________________________
batch_normalization_18 (Batc (None, 149, 149, 32)      128       
_________________________________________________________________
conv2d_22 (Conv2D)           (None, 147, 147, 64)      18496     
_________________________________________________________________
max_pooling2d_16 (MaxPooling (None, 73, 73, 64)        0         
_________________________________________________________________
batch_normalization_19 (Batc (None, 73, 73, 64)        256       
_________________________________________________________________
conv2d_23 (Conv2D)           (None, 71, 71, 64)        36928     
_________________________________________________________________
max_pooling2d_17 (MaxPooling (None, 35, 35, 64)        0         
_________________________________________________________________
batch_normalization_20 (Batc (None, 35, 35, 64)        256       
_________________________________________________________________
conv2d_24 (Conv2D)           (None, 33, 33, 96)        55392     
_________________________________________________________________
max_pooling2d_18 (MaxPooling (None, 16, 16, 96)        0         
_________________________________________________________________
batch_normalization_21 (Batc (None, 16, 16, 96)        384       
_________________________________________________________________
conv2d_25 (Conv2D)           (None, 14, 14, 32)        27680     
_________________________________________________________________
max_pooling2d_19 (MaxPooling (None, 7, 7, 32)          0         
_________________________________________________________________
batch_normalization_22 (Batc (None, 7, 7, 32)          128       
_________________________________________________________________
dropout_12 (Dropout)         (None, 7, 7, 32)          0         
_________________________________________________________________
flatten_5 (Flatten)          (None, 1568)              0         
_________________________________________________________________
dense_10 (Dense)             (None, 128)               200832    
_________________________________________________________________
dropout_13 (Dropout)         (None, 128)               0         
_________________________________________________________________
dense_11 (Dense)             (None, 5)                 645       
=================================================================
Total params: 342,021
Trainable params: 341,445
Non-trainable params: 576
_________________________________________________________________
300/300 [==============================] - 62s 206ms/step - loss: 0.3403 - accuracy: 1.0000
==> The accuracy ofclassification_model_3.h5 is: 100.00%
==> Evaluating.......
Model: "sequential"
_________________________________________________________________
Layer (type)                 Output Shape              Param #   
=================================================================
conv2d (Conv2D)              (None, 298, 298, 32)      896       
_________________________________________________________________
activation (Activation)      (None, 298, 298, 32)      0         
_________________________________________________________________
max_pooling2d (MaxPooling2D) (None, 149, 149, 32)      0         
_________________________________________________________________
conv2d_1 (Conv2D)            (None, 147, 147, 32)      9248      
_________________________________________________________________
activation_1 (Activation)    (None, 147, 147, 32)      0         
_________________________________________________________________
max_pooling2d_1 (MaxPooling2 (None, 73, 73, 32)        0         
_________________________________________________________________
conv2d_2 (Conv2D)            (None, 71, 71, 64)        18496     
_________________________________________________________________
activation_2 (Activation)    (None, 71, 71, 64)        0         
_________________________________________________________________
max_pooling2d_2 (MaxPooling2 (None, 35, 35, 64)        0         
_________________________________________________________________
flatten (Flatten)            (None, 78400)             0         
_________________________________________________________________
dense (Dense)                (None, 64)                5017664   
_________________________________________________________________
activation_3 (Activation)    (None, 64)                0         
_________________________________________________________________
dropout (Dropout)            (None, 64)                0         
_________________________________________________________________
dense_1 (Dense)              (None, 5)                 325       
_________________________________________________________________
activation_4 (Activation)    (None, 5)                 0         
=================================================================
Total params: 5,046,629
Trainable params: 5,046,629
Non-trainable params: 0
_________________________________________________________________
300/300 [==============================] - 42s 139ms/step - loss: 0.2231 - accuracy: 1.0000
==> The accuracy ofclassification_model_4.h5 is: 100.00%
(base) Xuezhous-MacBook-Pro:Group_A xuezhouwen$ cd ..
…
